models/weights/pose_refiner.pth (torch_old, 107872 bytes, 6 tensors)

fc1.0.weight f4 [128, 39]
0.048364248 -0.07986744 0.053469438 0.052871846 0.058173217 -0.121808626 0.06781538 0.006633714
-0.047168076 -0.043663427 0.051145934 -0.011550633 -0.038783666 -0.08403778 0.26082054 0.3781377
0.23565888 -0.27160963 -0.22759163 -0.033009544 0.26560888 0.11242996 -0.028892843 -0.07446201
-0.08734438 0.08492934 -0.027317597 -0.048247535 -0.031345475 0.08870311 -0.08212932 -0.015482137
0.107688166 -0.12147521 -0.03797326 0.15872486 -0.017048473 0.030118182 -0.014680285 -0.10250564
0.026560616 0.05726019 0.48130816 0.19165143 -0.29004347 -0.092879854 -0.027732292 0.114869565
-0.1672544 0.06798479 0.07416032 0.030624857 -0.024514299 -0.013711211 0.04901601 -0.026793227
-0.018188722 0.06445366 -0.049580663 -0.0081240395 -0.21216916 -0.06352604 0.2643862 -0.14028169
0.0048089516 0.11873969 -0.10049675 0.091084 -0.023650011 0.01015617 0.034747537 -0.05694321
0.06933713 -0.033791095 -0.020305533 -0.05313887 0.048630167 -0.004919919 -0.04446122 -0.010048845
0.05668578 0.11296328 -0.17982207 0.06823463 0.20890346 -0.2330006 0.03549398 0.13720283
-0.17674479 0.05536635 -0.20142612 0.0632377 0.10494063 -0.22642273 0.030392163 0.16515589
-0.22855859 -0.03610909 0.22043546 0.29169026 -0.290339 0.047472104 0.045543037 -0.09823543
0.0571097 0.069844514 -0.13339043 0.0835814 -0.036150903 -0.08143581 0.12314723 -0.12537816
-0.050150756 0.16128075 -0.005494343 -0.06846433 0.07952207 0.0046314 0.0030534496 -0.0064183874
-0.004629385 0.0012266053 0.0041861455 -0.024039919 0.013960237 0.005350609 -0.012032922 -0.0010569646
0.016671414 -0.11043051 -0.040815264 1.2556777 0.0032925385 -0.017413875 0.02057006 0.01305232
0.0011437999 -0.01507746 -0.032068077 0.015418292 0.015180911 -0.0389481 0.014350676 0.017876348
-0.019305017 0.0053707007 0.008935005 0.010115875 0.0026227431 -0.010793169 -0.027923614 0.03952688
-0.023362298 -0.0031580504 -0.0115650175 0.013722511 -0.002645537 0.02136977 -0.025943864 0.041208223
0.0039323457 -0.050132636 0.107195295 0.002773833 -0.12237052 0.5753663 0.44433036 0.3210848
-0.025859041 0.021283157 -0.0025081385 -0.0424463 -0.0064135245 0.04598353 -0.047480788 -0.013971619
0.059716117 0.024298448 -0.036965072 0.021583918 0.021754432 0.00013236178 -0.01979174 0.0198811
-0.007633391 -0.010143263 0.027710969 -0.016197694 -0.008887685 0.076487176 0.014620262 -0.08395891
0.08494223 0.018297516 -0.10091781 0.10435946 -0.07763398 -0.026610658 0.16054305 -0.11794467
-0.041748386 -0.13698852 0.032176305 0.06683419 0.011874115 0.07796355 -0.085369445 -0.098402396
0.12507954 -0.07460113 0.07028576 -0.23109776 0.14275521 -0.1372379 0.20812333 -0.08195177
-0.031026086 0.3119913 -0.29752666 -0.21304025 0.2917946 -0.120240994 0.08305207 -0.0038238368
-0.06747847 -0.03470846 0.10115867 -0.09063249 -0.017650558 -0.14841215 0.1413189 -0.19424078
0.10925307 0.05651287 -0.002003706 -0.012270074 0.0065701134 0.028578086 -0.07798961 0.08141824
-0.04674333 -0.031732745 0.06715697 0.18103449 -0.18212655 0.053149156 0.03466134 -0.05585495
0.036540247 -0.051350232 0.06743207 -0.040058702 0.10226696 -0.07133927 -0.010997093 0.027468117
00000000: 9719 463d 8a91 a3bd c502 5b3d 2690 583d
00000010: 0a47 6e3d cd76 f9bd cae2 8a3d a05f d93b
00000020: 5033 41bd 6cd8 32bd 667e 513d de3e 3dbc
00000030: 9fdb 1ebd 001c acbd 458a 853e 449b c13e
00000040: 9050 713e 6b10 8bbe c80d 69be 0435 07bd
00000050: e3fd 873e ae41 e63d afb0 ecbc 8a7f 98bd
00000060: 9ce1 b2bd 6fef ad3d 27c9 dfbc 359f 45bd
00000070: 1d64 00bd faa9 b53d 6b33 a8bd caa8 7dbc
00000080: 9d8b dc3d ffc7 f8bd d989 1bbd c588 223e
00000090: 3da9 8bbc 68ba f63c 9485 70bc 7aee d1bd
000000a0: a695 d93c a989 6a3d 066e f63e 4640 443e
000000b0: 9480 94be cb37 bebd d52e e3bc bc40 eb3d
000000c0: bd44 2bbe 9c3b 8b3d 5ee1 973d fbe0 fa3c
000000d0: 36d2 c8bc fda4 60bc 03c5 483d 787d dbbc
000000e0: 8400 95bc 4800 843d 1815 4bbd b11a 05bc
000000f0: df42 59be f119 82bd a15d 873e 01a6 0fbe
00000100: 6994 9d3b cb2d f33d 3dd1 cdbd 408a ba3d
00000110: abbd c1bc 1166 263c 6f53 0e3d 493d 69bd
00000120: a000 8e3d 8868 0abd ca57 a6bc 25a8 59bd
00000130: 6d30 473d 4637 a1bb f81c 36bd e9a3 24bc
00000140: 592f 683d 4b59 e73d 4723 38be 99be 8b3d
00000150: caea 553e b697 6ebe 2362 113d e67e 0c3e
00000160: 96fc 34be d3c7 623d a642 4ebe c482 813d
00000170: 1deb d63d 5cdb 67be fcf8 f83c a01e 293e
00000180: 430b 6abe 20e7 13bd d5b9 613e 6d58 953e
00000190: 50a7 94be 1c72 423d 568b 3a3d a82f c9bd
000001a0: dceb 693d a40a 8f3d 8097 08be ba2c ab3d
000001b0: f812 14bd d1c7 a6bd 9d34 fc3d 2263 00be
000001c0: e16a 4dbd c826 253e e409 b4bb 0737 8cbd
000001d0: 78dc a23d 00c3 973b 621c 483b 5651 d2bb
000001e0: 19b2 97bb 0bc6 a03a ef2b 893b 5def c4bc
000001f0: 7ab9 643c 2954 af3b bc25 45bc d989 8aba
00000200: 7d92 883c 6429 e2bd e82d 27bd 0cba a03f
00000210: a1c7 573b 8ba7 8ebc 8b82 a83c 66d9 553c
00000220: 8eeb 953a 7307 77bc d159 03bd 019d 7c3c
00000230: 5bb9 783c 0b88 1fbd 191f 6b3c 6b71 923c
00000240: 8e25 9ebc b4fc af3b 2164 123c 0ebd 253c
00000250: 54e2 2b3b d5d5 30bc 10c0 e4bc f0e6 213d
00000260: 4a62 bfbc 4bf7 4ebb 337b 3dbc 62d4 603c
00000270: bf60 2dbb a80f af3c 3a88 d4bc f4c9 283d
00000280: e8da 803b e157 4dbd 3589 db3d 32c9 353b
00000290: 659d fabd 354b 133f 457f e33e 3a65 a43e
000002a0: 57d6 d3bc 045a ae3c 955f 24bb 2cdc 2dbd
000002b0: 8b28 d2bb 3a59 3c3d 377b 42bd 38e9 64bc
000002c0: e398 743d 8a0d c73c b068 17bd c2d0 b03c
000002d0: 5a36 b23c 98ca 0a39 4a22 a2bc b0dd a23c
000002e0: 8621 fabb ee2f 26bc 1d02 e33c 07b1 84bc
000002f0: a79d 11bc 4fa5 9c3d d389 6f3c a6f2 abbd
00000300: 31f6 ad3d ace4 953c ffad cebd 6aba d53d
00000310: 90fe 9ebd 98fe d9bc 6665 243e fa8c f1bd
00000320: 5b00 2bbd b846 0cbe 4dcb 033d 5de0 883d
00000330: a68b 423c 5bab 9f3d 2dd6 aebd 3287 c9bd
00000340: da14 003e 7ac8 98bd fbf1 8f3d e4a4 6cbe
00000350: 6c2e 123e 1888 0cbe 481e 553e 54d6 a7bd
00000360: 6b2a febc 53bd 9f3e 6a55 98be 3927 5abe
00000370: 1a66 953e e940 f6bd 3417 aa3d 5699 7abb
00000380: 2732 8abd 752a 0ebd 472c cf3d 879d b9bd
00000390: e797 90bc 5bf9 17be e7b5 103e 0ee7 46be
000003a0: 13c0 df3d 0a7a 673d 9c50 03bb 6c08 49bc
000003b0: 1b4a d73b 971c ea3c 04b9 9fbd 9bbe a63d
000003c0: ef75 3fbd 32fa 01bd 9889 893d 1b61 393e
000003d0: 627f 3abe eeb2 593d 0df9 0d3d 29c8 64bd
000003e0: 3aab 153d 9f54 52bd d319 8a3d 9814 24bd
000003f0: 5771 d13d 531a 92bd 272d 34bc d104 e13c

fc1.0.bias f4 [128]
0.0009369061 -0.08853591 0.16609019 0.024900988 -0.10364365 0.12769912 0.013205014 -0.545332
-0.20187026 0.08432564 -0.16258499 0.107293084 0.40907082 -0.21313551 -0.017957356 -0.325737
0.15707149 -0.21453626 0.26985085 -0.10729437 0.2391043 -0.09405558 0.09159561 0.02467048
0.37816113 0.23215853 0.20405631 0.29854023 -0.059335932 0.0154764075 0.4199192 0.23026492
-0.14662378 -0.05484056 -0.2862297 -0.35672253 0.06359877 -0.10554181 -0.030022696 -0.050961208
0.13606642 -0.1745379 0.24176323 -0.123263136 -0.17273158 -0.25794706 -0.23413734 0.04204444
-0.27058983 -0.12367055 -0.13319284 -0.27245212 -0.20507853 0.18360883 0.032766066 0.04419339
0.06952674 0.17578395 -0.15632108 -0.3275433 -0.3298793 -0.09006116 0.18280756 0.10180539
-0.120050445 -0.06617155 0.14871852 -0.33834714 -0.012858739 -0.13923086 -0.048133146 0.19021602
0.08450751 0.16642503 -0.0618237 -0.12108243 0.19755585 0.26125422 0.06067344 -0.27285802
-0.11920014 -0.0618272 -0.05340457 -0.18957192 -0.17155994 -0.10134084 0.2347081 -0.22635339
0.30793357 -0.26449767 -0.099260725 0.08061736 -0.18218192 0.07870842 0.016019408 -0.3017725
0.16580142 0.15377946 0.26599014 -0.055214904 -0.035558745 0.21987979 -0.0039434843 0.3387268
0.2778812 0.38642588 -0.23044683 -0.12568042 0.02804954 -0.16195662 0.076245666 -0.2287042
0.19791554 0.03612218 -0.1310667 -0.06343623 -0.31040046 -0.025207529 -0.14235094 -0.26088563
-0.2844283 0.29228753 -0.3628752 0.15950677 0.11334592 -0.23026645 0.0037544698 -0.4104175
00000000: b49a 753a 5152 b5bd 8c13 2a3e 28fd cb3c
00000010: 1f43 d4bd 8fc3 023e d859 583c e19a 0bbf
00000020: 14b7 4ebe ecb2 ac3d ae7c 26be 7abc db3d
00000030: bb71 d13e 3240 5abe 4e1b 93bc 00c7 a6be
00000040: 59d7 203e 65af 5bbe e429 8a3e 27bd dbbd
00000050: c2d7 743e 36a0 c0bd 7b96 bb3d bf19 ca3c
00000060: 569e c13e f7ba 6d3e 23f4 503e 44da 983e
00000070: 3c0a 73bd c290 7d3c a6ff d63e 91ca 6b3e
00000080: 8b24 16be 7fa0 60bd b38c 92be 56a4 b6be
00000090: 1240 823d 4e26 d8bd 28f2 f5bc b3bc 50bd
000000a0: ff54 0b3e 10ba 32be c890 773e 6271 fcbd
000000b0: 8ce0 30be a311 84be b3c1 6fbe ca36 2c3d
000000c0: c08a 8abe fc46 fdbd b463 08be d87e 8bbe
000000d0: 1b00 52be f403 3c3e b635 063d 2104 353d
000000e0: 0964 8e3d b500 343e a212 20be c1b3 a7be
000000f0: f1e5 a8be fc71 b8bd e831 3b3e 587f d03d
00000100: 02dd f5bd f384 87bd ab49 183e d63b adbe
00000110: 76ad 52bc 8992 0ebe 4327 45bd fdc7 423e
00000120: 4612 ad3d 536b 2a3e d93a 7dbd 11fa f7bd
00000130: 154c 4a3e 1dc3 853e b784 783d 0cb4 8bbe
00000140: 341f f4bd 853e 7dbd c0be 5abd 241f 42be
00000150: 69ad 2fbe c98b cfbd 5257 703e 2fc9 67be
00000160: 78a9 9d3e 3d6c 87be 3549 cbbd b71a a53d
00000170: e68d 3abe e131 a13d 223b 833c ed81 9abe
00000180: d9c7 293e 5d78 1d3e dc2f 883e 0629 62bd
00000190: 0ca6 11bd 2b28 613e 5838 81bb 996d ad3e
000001a0: 7246 8e3e 9dd9 c53e 41fa 6bbe 5eb2 00be
000001b0: 26c8 e53c f5d7 25be b026 9c3d 6f31 6abe
000001c0: 5faa 4a3e daf4 133d 5936 06be dbea 81bd
000001d0: cfec 9ebe 0580 cebc 72c4 11be cd92 85be
000001e0: 96a0 91be b6a6 953e c7ca b9be be55 233e
000001f0: e821 e83d f8ca 6bbe 8d0d 763b 3e22 d2be

fc2.0.weight f4 [128, 128]
-0.034812085 -0.012499752 -0.09913319 -0.057102226 -0.05998059 0.1653454 0.045746837 0.18870962
-0.2483533 0.030200683 0.15122984 -0.07132631 0.08601239 0.13631521 0.018754864 -0.014528106
0.06730059 -0.06602293 -0.06493917 -0.05859391 -0.038659837 -0.022832025 -0.16324322 -0.0143298935
0.07122096 0.10230613 -0.00057955034 0.027887717 -0.032818254 0.09327275 0.15802234 0.0029720294
0.10804843 0.105267674 0.051275488 -0.015324393 0.16765048 0.15772827 -0.0031785965 0.023215946
0.043457102 0.080670506 -0.06012626 0.07476751 -0.051451463 -0.01990871 0.1803763 -0.026412968
-0.077872366 0.10504107 0.015394708 -0.03257557 0.09128134 0.04085307 -0.023166643 0.05796454
-0.09963183 -0.06848123 -0.26320186 0.02971476 -0.035078626 0.018922871 0.16310728 -0.02145724
0.046206642 0.051262144 -0.062078398 -0.086096935 0.03484371 0.007992179 -0.01044673 -0.05827432
0.07352749 -0.18324704 -0.06522631 0.060123857 0.027820628 0.00037099767 0.017996822 0.09784797
-0.018484194 -0.17565244 -0.0884733 0.025743814 0.07016934 -0.029403642 0.0018499393 0.1541069
0.08821696 0.020849401 0.07912795 -0.053306326 -0.028594684 -0.047417365 -0.0067629484 -0.124436855
-0.12171213 0.2342154 0.07969694 0.12294078 0.053689815 -0.020440284 0.17966187 0.003595128
-0.07777714 0.084192745 0.3289595 -0.008501496 0.10429922 0.107933365 0.118460044 0.06511631
0.086689286 0.0038150162 -0.08591961 0.07529899 -0.12438163 0.045519616 -0.24310371 0.013142243
-0.090437606 -0.010314367 0.0790703 -0.04971833 0.025022993 -0.06991544 0.057235308 0.07582176
-0.010422914 0.04642198 0.057954717 0.04254662 -0.007677618 -0.1381856 0.04436813 0.013283104
-0.030607108 0.030437702 -0.055076074 0.004067348 -0.058497317 -0.0065985546 -0.0054646777 -0.0024201702
0.042356633 -0.014458472 0.089675836 -0.019596472 0.007121783 0.011107465 -0.031599734 -0.022151224
-0.112252004 -0.03117096 -0.0005287986 -0.04254168 0.014996912 0.0025826131 -0.021638263 0.004127182
-0.07191875 0.05734641 0.04541341 -0.070429355 -0.0089094285 0.08884009 -0.0026399281 -0.0030317914
0.028889453 0.029613314 0.03118054 0.11641579 0.0093025705 -0.019601706 0.013525694 0.004696029
0.025025817 -0.016039768 0.026461016 0.020265888 0.0017252866 0.016891422 -0.0051807626 0.3729501
0.039760154 0.083017506 -0.025565688 0.011747327 -0.0156087475 -0.07942292 0.055633172 0.042311218
-0.027161395 -0.057373933 -0.10661678 0.012269797 -0.025493769 0.05274735 -0.039780222 -0.06889476
-0.010341415 -0.05117579 0.061222482 0.02602428 -0.052668028 0.095731564 0.008307092 -0.08562301
0.017108392 0.062052347 -0.018678162 -0.04329341 0.058034398 0.051316496 -0.06256708 -0.041416753
-0.0057738964 0.030531764 0.054094773 0.056645967 0.05318524 0.053577285 0.0072383913 0.0041980837
0.02696883 0.004990098 0.06984495 0.054421864 -0.009405384 0.066347465 0.04097383 -0.15124989
0.024909135 0.15870021 0.015140985 0.0030938825 0.006103043 0.011671943 -0.045966353 0.0016072444
-0.0021511384 0.012263727 -0.035513226 -0.01229596 -0.007034653 0.00082129013 -0.05385526 0.014215275
0.021415241 0.0894989 -0.47759005 0.17802121 0.5708218 0.005178879 0.026373941 -0.0102848355
00000000: 1e97 0ebd c3cb 4cbc 5806 cbbd 06e4 69bd
00000010: 35ae 75bd 4e50 293e 0961 3b3d 183d 413e
00000020: 5450 7ebe 6c67 f73c ffdb 1a3e 8713 92bd
00000030: 4427 b03d 3796 0b3e cda3 993c 4b07 6ebc
00000040: e4d4 893d 0837 87bd d4fe 84bd 2b00 70bd
00000050: c759 1ebd 3a0a bbbc 3b29 27be eec7 6abc
00000060: 4bdc 913d e085 d13d f7ec 17ba c874 e43c
00000070: 6f6c 06bd c905 bf3d 9cd0 213e 61c6 423b
00000080: 7f48 dd3d 9496 d73d 3f06 523d 2a13 7bbc
00000090: 91ac 2b3e 8583 213e 0050 50bb 5e2f be3c
000000a0: 1300 323d 9436 a53d f446 76bd b51f 993d
000000b0: c5be 52bd 9717 a3bc 91b4 383e 0260 d8bc
000000c0: 8c7b 9fbd c61f d73d 163a 7c3c f66d 05bd
000000d0: b6f1 ba3d 8c55 273d f9c7 bdbc 3a6c 6d3d
000000e0: c60b ccbd e33f 8cbd 65c2 86be 5e6c f33c
000000f0: 9bae 0fbd 2304 9b3c 9805 273e 18c7 afbc
00000100: 2d43 3d3d 41f8 513d eb45 7ebd 9753 b0bd
00000110: 47b8 0e3d a1f1 023c c328 2bbc 0eb1 6ebd
00000120: 9595 963d 1da5 3bbe 5f95 85bd 6f44 763d
00000130: 16e8 e33c 7782 c239 126e 933c 8464 c83d
00000140: 2a6c 97bc 3cde 33be 7d31 b5bd b1e4 d23c
00000150: f1b4 8f3d e8df f0bc aa79 f23a 33ce 1d3e
00000160: 18ab b43d 5dcc aa3c d60d a23d bc57 5abd
00000170: 663f eabc b638 42bd b99b ddbb c0d8 febd
00000180: 3644 f9bd 29d6 6f3e 2638 a33d 60c8 fb3d
00000190: dae9 5b3d 6272 a7bc 48f9 373e 3d9c 6b3b
000001a0: 9f49 9fbd 3f6d ac3d 616d a83e dc49 0bbc
000001b0: d49a d53d 2b0c dd3d 2e9b f23d b35b 853d
000001c0: 278a b13d 5a05 7a3b 9ff6 afbd 5b36 9a3d
000001d0: ccbb febd c772 3a3d 2ef0 78be 9052 573c
000001e0: 5a37 b9bd 97fd 28bc 9cef a13d 73a5 4bbd
000001f0: 05fd cc3c d42f 8fbd 926f 6a3d 7048 9b3d
00000200: dfc4 2abc f924 3e3d ed61 6d3d 5d45 2e3d
00000210: 8794 fbbb 8780 0dbe 5bbb 353d 60a1 593c
00000220: c2bb fabc 7d58 f93c 7397 61bd 6347 853b
00000230: e29a 6fbd b038 d8bb 0a11 b3bb b89b 1ebb
00000240: 267e 2d3d 3ae3 6cbc f7a7 b73d c888 a0bc
00000250: d95d e93b 16fc 353c b96e 01bd 7c76 b5bc
00000260: 61e4 e5bd 3e5a ffbc 139f 0aba 2f40 2ebd
00000270: 9cb5 753c 0f41 293b ba42 b1bc 503d 873b
00000280: 234a 93bd 12e4 6a3d 6903 3a3d 443d 90bd
00000290: daf8 11bc cbf1 b53d a502 2dbb 05b1 46bb
000002a0: 93a9 ec3c 9f97 f23c 556e ff3c 676b ee3d
000002b0: cf69 183c c293 a0bc df9a 5d3c 25e1 993b
000002c0: f102 cd3c d565 83bc c6c4 d83c a604 a63c
000002d0: 0323 e23a e15f 8a3c 63c3 a9bb 51f3 be3e
000002e0: 8bdb 223d 1505 aa3d 226f d1bc dc77 403c
000002f0: d5bb 7fbc 7ca8 a2bd 9cdf 633d 874e 2d3d
00000300: 9381 debc ee00 6bbd e659 dabd 4207 493c
00000310: 4fd8 d0bc 9b0d 583d 96f0 22bd b218 8dbd
00000320: 0a6f 29bc b59d 51bd 6dc4 7a3d df30 d53c
00000330: 6eba 57bd e90e c43d 781a 083c 1e5b afbd
00000340: e626 8c3c 9a2a 7e3d f202 99bc 6e54 31bd
00000350: 7ab5 6d3d 3f31 523d 2b23 80bd 9da4 29bd
00000360: f432 bdbb c01d fa3c 7b92 5d3d 9a05 683d
00000370: c4d8 593d db73 5b3d 0730 ed3b 1490 893b
00000380: bced dc3c fa83 a33b df0a 8f3d 76e9 5e3d
00000390: 0a19 1abc 2ee1 873d 2dd4 273d 40e1 1abe
000003a0: 3e0e cc3c 4f82 223e e511 783c bcc2 4a3b
000003b0: 09fc c73b ad3b 3f3c 3747 3cbd 2caa d23a
000003c0: 1dfa 0cbb cded 483c 5176 11bd ff74 49bc
000003d0: f282 e6bb d94b 573a 5597 5cbd 2fe7 683c
000003e0: 046f af3c 334b b73d af86 f4be 314b 363e
000003f0: 6121 123f 96b3 a93b 2a0e d83c ba81 28bc

fc2.0.bias f4 [128]
0.093967274 -0.11170182 -0.05540592 -0.08662933 -0.024578508 0.12897426 0.11290575 0.0849778
-0.008623589 0.076937884 0.030868502 -0.07657462 -0.038121022 0.034032825 0.007995966 -0.10083495
-0.07346488 0.104507685 -0.022206051 -0.056590617 -0.05807199 0.04232927 0.17041805 -0.07142114
0.03485668 -0.21178564 -0.05374849 -0.02142812 0.048486996 0.009269106 0.09166183 -0.10988102
0.14970817 -0.049697928 0.10265709 0.0398896 0.061433252 -0.06757964 0.080699995 0.075358085
0.07156026 0.053224977 0.11127517 -0.04840865 0.025635835 0.0354418 -0.04130691 0.0818131
0.17029622 0.057532568 -0.056479476 0.13192119 0.035308007 0.15764995 -0.021066647 0.10612234
0.077236906 -0.045756817 -0.03692016 0.06466819 -0.079716 0.04596623 -0.0279461 -0.012926302
0.09402517 -0.021812623 0.025118724 -0.03570751 0.029644372 0.10341074 -0.05708823 -0.029337727
0.042679682 -0.08911126 0.04244786 0.0026312661 0.05821505 0.08795364 0.061495647 0.21132216
-0.003907191 -0.016892003 0.15137166 0.022255147 -0.20063993 -0.074620135 0.23452093 0.1272772
0.02487041 0.08348312 0.079021834 -0.016733535 0.11292907 0.0400415 0.09403457 -0.10264854
0.089378335 -0.014324784 0.07774624 0.011887571 9.0081834e-05 0.12015707 0.06884258 -0.07105731
-0.19742076 -0.057225496 -0.04034923 0.047484595 0.08091075 0.011949478 0.07728805 0.0030624906
-0.068894096 -0.17443314 0.0697434 0.046884462 0.09915753 -0.07273222 -0.079947725 0.083221175
-0.035706624 -0.014213111 -0.13116315 0.04006256 0.109013006 0.06691814 0.019997267 -0.046916045
00000000: ea71 c03d ecc3 e4bd 51f1 62bd b86a b1bd
00000010: de58 c9bc d411 043e 213b e73d d708 ae3d
00000020: f449 0dbc 9c91 9d3d f1df fc3c 28d3 9cbd
00000030: ca24 1cbd 0166 0b3d 8301 033c 8e82 cebd
00000040: c174 96bd 2008 d63d 77e9 b5bc 90cb 67bd
00000050: e5dc 6dbd 7561 2d3d 1282 2e3e 3f45 92bd
00000060: e1c5 0e3d 56de 58be 6027 5cbd 068a afbc
00000070: 4d9a 463d 73dd 173c 33b9 bb3d 4d09 e1bd
00000080: 194d 193e 0e90 4bbd e13d d23d 4763 233d
00000090: 6fa1 7b3d 3267 8abd 0a46 a53d 5755 9a3d
000000a0: 308e 923d 6f02 5a3d 3de4 e33d 2648 46bd
000000b0: 3e02 d23c 6c2b 113d 6f31 29bd a08d a73d
000000c0: 2262 2e3e 45a7 6b3d 0657 67bd 5916 073e
000000d0: 219f 103d fd6e 213e f693 acbc ab56 d93d
000000e0: 622e 9e3d 806b 3bbd 9839 17bd c270 843d
000000f0: 2442 a3bd 1647 3c3d 38ef e4bc d7c8 53bc
00000100: 4590 c03d 63b0 b2bc c8c5 cd3c 0a42 12bd
00000110: c1d8 f23c 03c9 d33d 59d5 69bd ac55 f0bc
00000120: e4d0 2e3d f77f b6bd cfdd 2d3d 5271 2c3b
00000130: e772 6e3d 0a21 b43d dce2 7b3d d664 583e
00000140: e507 80bb 1961 8abc 2c01 1b3e 6d50 b63c
00000150: 8e74 4dbe 71d2 98bd 4126 703e f454 023e
00000160: 08bd cb3c 33f9 aa3d 33d6 a13d c414 89bc
00000170: 5b47 e73d 8e02 243d 3295 c03d 6639 d2bd
00000180: fd0b b73d 80b2 6abc 6c39 9f3d 16c4 423c
00000190: 51ea bc38 e914 f63d 57fd 8c3d 7f86 91bd
000001a0: ab28 4abe 4865 6abd 3c45 25bd 357f 423d
000001b0: 89b4 a53d bec7 433c 3249 9e3d 11b4 483b
000001c0: 5918 8dbd 9a9e 32be a1d5 8e3d ec09 403d
000001d0: 1a13 cb3d a1f4 94bd a2bb a3bd dd6f aa3d
000001e0: 1c41 12bd 1cde 68bc a24f 06be a418 243d
000001f0: 3642 df3d 610c 893d 4fd1 a33c 0a2b 40bd

fc3.0.weight f4 [39, 128]
-0.11070502 -0.00018009412 0.15020135 0.025951898 0.10721783 0.17847131 -0.05840529 0.0828202
0.0011503838 -0.040349625 0.003065969 0.09170993 0.13541833 -0.06631601 -0.117614746 -0.04402261
-0.14401995 -0.06735592 0.08110338 -0.08517349 -0.05168555 -0.015076988 -0.04593637 -0.15339383
0.17815974 0.07896532 0.026030188 0.085050054 0.0013363416 -0.10516518 -0.066306755 0.057114784
-0.0874314 0.14204644 -0.0043485523 -0.0450361 -0.06447831 0.021418901 -0.05852871 -0.109620415
-0.019973053 0.071251534 -0.075500466 -0.036847692 0.13345897 0.1434017 0.011168221 -0.052774485
-0.015895793 -0.02114217 0.03524174 -0.016509604 -0.0053173127 -0.033065975 -0.07226847 -0.033542033
-0.076268576 0.043440554 -0.025251344 -0.10438935 -0.014812449 0.24848007 0.15393329 0.041675515
-0.037559193 0.08836032 -0.031584207 0.023370711 0.2635995 0.101468705 0.012428352 0.009518057
-0.11437728 -0.092764884 -0.014748046 0.09683425 0.07379948 0.115933605 -0.06778197 0.20108345
-0.009876553 -0.010563672 0.05602293 -0.13461916 0.11394205 0.16804798 0.05999921 0.09633125
0.100865856 0.00090308854 -0.0114820935 -0.03929663 -0.05006161 0.0741773 -0.08775745 0.021402001
-0.04132778 -0.10413679 0.026674658 -0.053958014 -0.008403699 -0.025895068 0.0032867466 0.020706698
-0.023108715 -0.05365301 -0.20131843 -0.09947663 -0.087894596 -0.067368545 -0.053317036 -0.0071566165
0.21880993 0.11031078 -0.037825223 0.043860216 0.06223621 0.039892126 3.573343e-05 0.057709623
-0.046375304 -0.047819614 0.15702996 0.013811438 -0.080327146 -0.025208442 -0.03885244 -0.070245124
-0.17485768 0.003758974 -0.13334297 -0.087117486 0.047052827 0.23166752 -0.05698053 0.13748159
0.034449846 -0.08300938 -0.027865998 0.0045282408 0.16779129 0.040582366 -0.101086915 -0.012537679
-0.10759364 -0.11394341 -0.0028248583 -0.08790792 -0.013947503 0.17410307 0.34481674 -0.05410591
0.13480404 -0.064189665 -0.0022863792 -0.041569963 -0.13634665 0.069878675 -0.053309955 0.07325139
0.0104586985 0.120749 0.00404298 0.027269755 0.16864452 -0.12088769 -0.032356028 -0.1252845
0.029834282 0.04572619 -0.06468955 -0.044037294 0.107247785 0.20719478 0.06500941 0.03812917
0.029952304 -0.06658943 -0.05566115 -0.05874545 -0.045570523 -0.03084743 -0.044283953 -0.029943964
0.08981968 0.10457029 -0.024985319 0.10522297 -0.06963404 0.1090465 -0.013868765 -0.09028522
0.019264843 0.018212212 -0.06009914 -0.08610678 0.13250934 0.0028155264 -0.041392885 -0.022087922
0.050692204 -0.0111578535 -0.043269873 -0.0010732482 0.07332866 -0.10972992 -0.011142606 0.087392084
0.03777003 0.0407554 0.029297693 0.10076086 0.0066454085 0.15251411 0.13830478 -0.02491138
0.049406223 -0.16829176 0.050459117 0.058996376 -0.10830824 -0.004727796 0.027899515 0.050390795
-0.005487812 0.01846097 0.050190117 0.06836093 0.06724188 0.009073786 -0.1407526 -0.021991296
-0.113208406 -0.073077105 -0.095858015 0.15521906 -0.062150806 0.03480298 0.027044626 -0.020741398
0.08707737 0.0055645336 -0.11414494 -0.07743169 0.070276015 0.017846087 -0.043360274 -0.027056029
-0.052182514 -0.17875029 0.14193457 0.06980758 0.10221927 -0.087482564 0.0019371808 0.08074932
00000000: 50b9 e2bd a6d7 3cb9 62ce 193e 1399 d43c
00000010: 0695 db3d 2fc1 363e 633a 6fbd a39d a93d
00000020: 7ac8 963a a645 25bd 6dee 483b 6ad2 bb3d
00000030: 1aab 0a3e b0d0 87bd 00e0 f0bd 0d51 34bd
00000040: f779 13be e7f1 89bd 8719 a63d 706f aebd
00000050: 3ab4 53bd 7905 77bc c627 3cbd 4613 1dbe
00000060: 826f 363e 92b8 a13d 433d d53c b92e ae3d
00000070: 2f28 af3a d860 d7bd d6cb 87bd 31f1 693d
00000080: 3c0f b3bd 9f74 113e 4d7e 8ebb c677 38bd
00000090: 340d 84bd b176 af3c cdbb 6fbd ab80 e0bd
000000a0: 879e a3bc 53ec 913d fd9f 9abd 9bed 16bd
000000b0: 78a9 083e e5d7 123e eafa 363c 0f2a 58bd
000000c0: e537 82bc 5832 adbc a559 103d 263f 87bc
000000d0: da3c aebb 3070 07bd 7e01 94bd 5f63 09bd
000000e0: b332 9cbd b9ee 313d e8db cebc 15ca d5bd
000000f0: eaaf 72bc 8f71 7e3e b0a0 1d3e f2b3 2a3d
00000100: abd7 19bd 41f6 b43d 715e 01bd ef73 bf3c
00000110: 83f6 863e d3ce cf3d 49a0 4b3c a0f1 1b3c
00000120: a33e eabd 84fb bdbd caa1 71bc 0951 c63d
00000130: 2f24 973d 996e ed3d 46d1 8abd d2e8 4d3e
00000140: 44d1 21bc 4013 2dbc 4d78 653d 9bd9 09be
00000150: 735a e93d c514 2c3e bbc1 753d 5249 c53d
00000160: c292 ce3d 3fbd 6c3a 641f 3cbc 81f5 20bd
00000170: 670d 4dbd 45ea 973d 2eba b3bd 4053 af3c
00000180: 5147 29bd ab45 d5bd d084 da3c 1403 5dbd
00000190: abaf 09bc e521 d4bc 7566 573b 18a1 a93c
000001a0: 7d4e bdbc 42c3 5bbd 6b26 4ebe 67ba cbbd
000001b0: 1502 b4bd 85f8 89bd f762 5abd 0d82 eabb
000001c0: b60f 603e 9eea e13d 9fee 1abd c5a6 333d
000001d0: 65eb 7e3d ed65 233d 7ae0 1538 ed60 6c3d
000001e0: 08f4 3dbd 80de 43bd 76cc 203e 5f49 623c
000001f0: 8f82 a4bd ef81 cebc bc23 1fbd addc 8fbd
00000200: e40d 33be 1e59 763b 0f8b 08be a76a b2bd
00000210: 77ba 403d 403a 6d3e 6b64 69bd f9c7 0c3e
00000220: 481b 0d3d d200 aabd 3c47 e4bc a361 943b
00000230: 7bd1 2b3e b239 263d a806 cfbd d66a 4dbc
00000240: 0e5a dcbd 2a5b e9bd 4221 39bb 1109 b4bd
00000250: 1184 64bc 1348 323e d28b b03e 299e 5dbd
00000260: 120a 0a3e df75 83bd 14d7 15bb 4445 2abd
00000270: 759e 0bbe 8d1c 8f3d 8a5b 5abd d304 963d
00000280: f65a 2b3c 404b f73d f97a 843b d264 df3c
00000290: 26b1 2c3e f793 f7bd c187 04bd 944a 00be
000002a0: 0667 f43c 634b 3b3d f47b 84bd 7360 34bd
000002b0: baa4 db3d de2a 543e a723 853d 552d 1c3d
000002c0: 895e f53c 0a60 88bd f2fc 63bd 129f 70bd
000002d0: 28a8 3abd c0b3 fcbc 1763 35bd 0b4d f5bc
000002e0: 61f3 b73d f328 d63d 03ae ccbc 247f d73d
000002f0: 4b9c 8ebd c553 df3d d139 63bc 75e7 b8bd
00000300: 4ed1 9d3c c731 953c 842a 76bd c058 b0bd
00000310: 87b0 073e b284 383b 968b 29bd bbf1 b4bc
00000320: a1a2 4f3d 6ecf 36bc c03b 31bd 3cac 8cba
00000330: 562d 963d 15ba e0bd 7a8f 36bc 9ffa b23d
00000340: bfb4 1a3d 22ef 263d b701 f03c b65b ce3d
00000350: bac1 d93b a92c 1c3e c59f 0d3e f312 ccbc
00000360: 2e5e 4a3d ad54 2cbe 38ae 4e3d 2fa6 713d
00000370: b6d0 ddbd a1eb 9abb 868d e43c 9466 4e3d
00000380: 1bd3 b3bb 763b 973c 2794 4d3d d100 8c3d
00000390: 1cb6 893d 38aa 143c 7321 10be 1727 b4bc
000003a0: cfd9 e7bd 73a9 95bd 3551 c4bd bff1 1e3e
000003b0: d891 7ebd 928d 0e3d b18c dd3c dde9 a9bc
000003c0: 9f55 b23d b156 b63b d3c4 e9bd 8294 9ebd
000003d0: dfec 8f3d f531 923c 8b9a 31bd 9ba4 ddbc
000003e0: 55bd 55bd 510a 37be 4c57 113e 47f7 8e3d
000003f0: 5658 d13d 0f2a b3bd 00e9 fd3a e65f a53d

fc3.0.bias f4 [39]
-0.01238297 0.07819553 0.014873195 -0.07968465 0.03556132 -0.028257785 -0.07639219 0.016494421
-0.053870697 -0.039382957 -0.03633208 0.017907903 -0.025297873 0.102557905 0.04947521 0.008086474
0.087369226 0.01592633 -0.0071133785 -0.014572586 -0.029032294 0.04879918 0.01314103 -0.0024613074
0.015875299 -0.09148465 0.034477808 -0.049303047 0.07193501 -0.05363201 -0.066957295 0.11972471
-0.025779974 -0.01976629 0.045354746 -0.038167793 -0.011185131 0.020461299 -0.014649023
00000000: f1e1 4abc fa24 a03d b4ae 733c b531 a3bd
00000010: bfa8 113d df7c e7bc 8273 9cbd 4f1f 873c
00000020: 85a7 5cbd 0650 21bd f2d0 14bd 98b3 923c
00000030: 7c3d cfbc e109 d23d 85a6 4a3d 217d 043c
00000040: a3ee b23d ef77 823c 5817 e9bb dbc1 6ebc
00000050: 22d5 edbc a6e1 473d 7a4d 573c e34d 21bb
00000060: ea0c 823c 4e5c bbbd 9a38 0d3d fef1 49bd
00000070: aa52 933d 3dad 5bbd e820 89bd 3b32 f53d
00000080: 8630 d3bc eaec a1bc e6c5 393d d555 1cbd
00000090: d741 37bc 749e a73c 7502 70bc
